=== Stage 1: Zielgeschwindigkeit 0.1 m/s ===
Actor MLP: Sequential(
  (0): Linear(in_features=33, out_features=512, bias=True)
  (1): ELU(alpha=1.0)
  (2): Linear(in_features=512, out_features=256, bias=True)
  (3): ELU(alpha=1.0)
  (4): Linear(in_features=256, out_features=128, bias=True)
  (5): ELU(alpha=1.0)
  (6): Linear(in_features=128, out_features=8, bias=True)
)
Critic MLP: Sequential(
  (0): Linear(in_features=33, out_features=512, bias=True)
  (1): ELU(alpha=1.0)
  (2): Linear(in_features=512, out_features=256, bias=True)
  (3): ELU(alpha=1.0)
  (4): Linear(in_features=256, out_features=128, bias=True)
  (5): ELU(alpha=1.0)
  (6): Linear(in_features=128, out_features=1, bias=True)
)
[DEBUG] Observation (env 0): tensor([… device='cuda:0')
[DEBUG] Action      (env 0): tensor([ 0.4274, -1.3232, -0.4172,  1.3371,  0.1626,  0.0850, -1.4033,  1.1682],
       device='cuda:0')
[DEBUG] Reward      (env 0): tensor(0.0278, device='cuda:0')
[WandB] Iter 0 | reward=0.02 | loss=0.0103
[WandB] Iter 0 | reward=0.02 | loss=0.0103
[Plot] saved to logs/dodo-walking/metrics.png
[WandB] Iter 1 | reward=0.02 | loss=0.0364
[WandB] Iter 1 | reward=0.02 | loss=0.0364
[CustomRunner] ✅ Saved checkpoint to logs/dodo-walking/model_stage1.pt
=== Stage 2: Zielgeschwindigkeit 0.3 m/s ===
Actor MLP: Sequential(
  (0): Linear(in_features=33, out_features=512, bias=True)
  (1): ELU(alpha=1.0)
  (2): Linear(in_features=512, out_features=256, bias=True)
  (3): ELU(alpha=1.0)
  (4): Linear(in_features=256, out_features=128, bias=True)
  (5): ELU(alpha=1.0)
  (6): Linear(in_features=128, out_features=8, bias=True)
)
Critic MLP: Sequential(
  (0): Linear(in_features=33, out_features=512, bias=True)
  (1): ELU(alpha=1.0)
  (2): Linear(in_features=512, out_features=256, bias=True)
  (3): ELU(alpha=1.0)
  (4): Linear(in_features=256, out_features=128, bias=True)
  (5): ELU(alpha=1.0)
  (6): Linear(in_features=128, out_features=1, bias=True)
)
[DEBUG] Observation (env 0): tensor([… device='cuda:0')
[DEBUG] Action      (env 0): tensor([ 1.4390,  0.9954, -3.2541,  0.6521,  2.0969, -1.8371, -1.2305, -0.3525],
       device='cuda:0')
[DEBUG] Reward      (env 0): tensor(0.0186, device='cuda:0')
[WandB] Iter 2 | reward=0.01 | loss=0.0030
[WandB] Iter 2 | reward=0.01 | loss=0.0030
[WandB] Iter 3 | reward=0.01 | loss=0.0104
[WandB] Iter 3 | reward=0.01 | loss=0.0104
[CustomRunner] ✅ Saved checkpoint to logs/dodo-walking/model_stage2.pt
=== Stage 3: Zielgeschwindigkeit 0.4 m/s ===
Actor MLP: Sequential(
  (0): Linear(in_features=33, out_features=512, bias=True)
  (1): ELU(alpha=1.0)
  (2): Linear(in_features=512, out_features=256, bias=True)
  (3): ELU(alpha=1.0)
  (4): Linear(in_features=256, out_features=128, bias=True)
  (5): ELU(alpha=1.0)
  (6): Linear(in_features=128, out_features=8, bias=True)
)
Critic MLP: Sequential(
  (0): Linear(in_features=33, out_features=512, bias=True)
  (1): ELU(alpha=1.0)
  (2): Linear(in_features=512, out_features=256, bias=True)
  (3): ELU(alpha=1.0)
  (4): Linear(in_features=256, out_features=128, bias=True)
  (5): ELU(alpha=1.0)
  (6): Linear(in_features=128, out_features=1, bias=True)
)
[DEBUG] Observation (env 0): tensor([… device='cuda:0')
[DEBUG] Action      (env 0): tensor([ 0.2650,  1.0363, -0.6743, -0.4197, -0.3647, -1.5811,  1.9881,  0.9056],
       device='cuda:0')
[DEBUG] Reward      (env 0): tensor(0.0145, device='cuda:0')
[WandB] Iter 4 | reward=0.01 | loss=0.0031
[WandB] Iter 4 | reward=0.01 | loss=0.0031
[WandB] Iter 5 | reward=0.01 | loss=0.0048
[WandB] Iter 5 | reward=0.01 | loss=0.0048
[CustomRunner] ✅ Saved checkpoint to logs/dodo-walking/model_stage3.pt
=== Stage 4: Zielgeschwindigkeit 0.5 m/s ===
Actor MLP: Sequential(
  (0): Linear(in_features=33, out_features=512, bias=True)
  (1): ELU(alpha=1.0)
  (2): Linear(in_features=512, out_features=256, bias=True)
  (3): ELU(alpha=1.0)
  (4): Linear(in_features=256, out_features=128, bias=True)
  (5): ELU(alpha=1.0)
  (6): Linear(in_features=128, out_features=8, bias=True)
)
Critic MLP: Sequential(
  (0): Linear(in_features=33, out_features=512, bias=True)
  (1): ELU(alpha=1.0)
  (2): Linear(in_features=512, out_features=256, bias=True)
  (3): ELU(alpha=1.0)
  (4): Linear(in_features=256, out_features=128, bias=True)
  (5): ELU(alpha=1.0)
  (6): Linear(in_features=128, out_features=1, bias=True)
)
[DEBUG] Observation (env 0): tensor([… device='cuda:0')
[DEBUG] Action      (env 0): tensor([ 0.8400, -0.3139, -1.1091,  1.3275,  0.3079,  1.0252,  1.5902,  0.2506],
       device='cuda:0')
[DEBUG] Reward      (env 0): tensor(0.0139, device='cuda:0')
[WandB] Iter 6 | reward=0.01 | loss=0.0027
[WandB] Iter 6 | reward=0.01 | loss=0.0027
[WandB] Iter 7 | reward=0.01 | loss=0.0463
…
