=== Stage 1: Zielgeschwindigkeit 0.1 m/s ===
Actor MLP: Sequential(
  (0): Linear(in_features=33, out_features=512, bias=True)
  (1): ELU(alpha=1.0)
  (2): Linear(in_features=512, out_features=256, bias=True)
  (3): ELU(alpha=1.0)
  (4): Linear(in_features=256, out_features=128, bias=True)
  (5): ELU(alpha=1.0)
  (6): Linear(in_features=128, out_features=8, bias=True)
)
Critic MLP: Sequential(
  (0): Linear(in_features=33, out_features=512, bias=True)
  (1): ELU(alpha=1.0)
  (2): Linear(in_features=512, out_features=256, bias=True)
  (3): ELU(alpha=1.0)
  (4): Linear(in_features=256, out_features=128, bias=True)
  (5): ELU(alpha=1.0)
  (6): Linear(in_features=128, out_features=1, bias=True)
)
[DEBUG] Observation (env 0): tensor([ … device='cuda:0')
[DEBUG] Action      (env 0): tensor([-0.9913,  0.2978,  0.5312, -0.7863,  0.2084, -1.4054, -1.1009,  0.9978],
       device='cuda:0')
[DEBUG] Reward      (env 0): tensor(0.0282, device='cuda:0')
[WandB] Iter 0 | reward=0.02 | loss=0.0107
[WandB] Iter 0 | reward=0.02 | loss=0.0107
[Plot] saved to logs/dodo-walking/metrics.png
[WandB] Iter 1 | reward=0.02 | loss=0.0198
[WandB] Iter 1 | reward=0.02 | loss=0.0198
[CustomRunner] ✅ Saved checkpoint to logs/dodo-walking/model_stage1.pt
=== Stage 2: Zielgeschwindigkeit 0.3 m/s ===
Actor MLP: Sequential(
  (0): Linear(in_features=33, out_features=512, bias=True)
  (1): ELU(alpha=1.0)
  (2): Linear(in_features=512, out_features=256, bias=True)
  (3): ELU(alpha=1.0)
  (4): Linear(in_features=256, out_features=128, bias=True)
  (5): ELU(alpha=1.0)
  (6): Linear(in_features=128, out_features=8, bias=True)
)
Critic MLP: Sequential(
  (0): Linear(in_features=33, out_features=512, bias=True)
  (1): ELU(alpha=1.0)
  (2): Linear(in_features=512, out_features=256, bias=True)
  (3): ELU(alpha=1.0)
  (4): Linear(in_features=256, out_features=128, bias=True)
  (5): ELU(alpha=1.0)
  (6): Linear(in_features=128, out_features=1, bias=True)
)
[DEBUG] Observation (env 0): tensor([… device='cuda:0')
[DEBUG] Action      (env 0): tensor([-0.3667,  0.7744, -0.4078, -0.9374,  0.7526,  1.8878, -0.5603, -0.5461],
       device='cuda:0')
[DEBUG] Reward      (env 0): tensor(0.0002, device='cuda:0')
[WandB] Iter 2 | reward=0.00 | loss=0.0016
[WandB] Iter 2 | reward=0.00 | loss=0.0016
[WandB] Iter 3 | reward=0.00 | loss=0.0041
[WandB] Iter 3 | reward=0.00 | loss=0.0041
[CustomRunner] ✅ Saved checkpoint to logs/dodo-walking/model_stage2.pt
=== Stage 3: Zielgeschwindigkeit 0.4 m/s ===
Actor MLP: Sequential(
  (0): Linear(in_features=33, out_features=512, bias=True)
  (1): ELU(alpha=1.0)
  (2): Linear(in_features=512, out_features=256, bias=True)
  (3): ELU(alpha=1.0)
  (4): Linear(in_features=256, out_features=128, bias=True)
  (5): ELU(alpha=1.0)
  (6): Linear(in_features=128, out_features=8, bias=True)
)
Critic MLP: Sequential(
  (0): Linear(in_features=33, out_features=512, bias=True)
  (1): ELU(alpha=1.0)
  (2): Linear(in_features=512, out_features=256, bias=True)
  (3): ELU(alpha=1.0)
  (4): Linear(in_features=256, out_features=128, bias=True)
  (5): ELU(alpha=1.0)
  (6): Linear(in_features=128, out_features=1, bias=True)
)
[DEBUG] Observation (env 0): tensor([… device='cuda:0')
[DEBUG] Action      (env 0): tensor([ 3.0677,  2.2999, -0.8015, -2.3580, -0.3871, -1.0506, -0.1213,  1.4781],
       device='cuda:0')
[DEBUG] Reward      (env 0): tensor(1.4473e-06, device='cuda:0')
[WandB] Iter 4 | reward=0.00 | loss=0.0018
[WandB] Iter 4 | reward=0.00 | loss=0.0018
[WandB] Iter 5 | reward=0.00 | loss=0.0188
…
